func.func @main(%arg0: tensor<1x224x224x3xf32>) -> tensor<1x112x112x32x!quant.uniform<u8:f32, 0.023528476789885875>> {
  %0 = "tfl.quantize"(%arg0) {qtype = tensor<1x224x224x3x!quant.uniform<u8:f32, 7.812500e-03:128>>} : (tensor<1x224x224x3xf32>) -> tensor<1x224x224x3x!quant.uniform<u8:f32, 7.812500e-03:128>>
  %1 = "tfl.pseudo_qconst"() {qtype = tensor<32x3x3x3x!quant.uniform<u8<1:255>:f32, 0.021826678373682216:151>>, value = dense<-76> : tensor<32x3x3x3xi8>} : () -> tensor<32x3x3x3x!quant.uniform<u8<1:255>:f32, 0.021826678373682216:151>>
  %2 = "tfl.pseudo_qconst"() {qtype = tensor<32x!quant.uniform<i32:f32, 1.7052092479439231E-4>>, value = dense<0> : tensor<32xi32>} : () -> tensor<32x!quant.uniform<i32:f32, 1.7052092479439231E-4>>
  %3 = "tfl.conv_2d"(%0, %1, %2) {dilation_h_factor = 1 : i32, dilation_w_factor = 1 : i32, fused_activation_function = "NONE", padding = "SAME", stride_h = 2 : i32, stride_w = 2 : i32} : (tensor<1x224x224x3x!quant.uniform<u8:f32, 7.812500e-03:128>>, tensor<32x3x3x3x!quant.uniform<u8<1:255>:f32, 0.021826678373682216:151>>, tensor<32x!quant.uniform<i32:f32, 1.7052092479439231E-4>>) -> tensor<1x112x112x32x!quant.uniform<u8:f32, 0.023528476789885875>>
  %4 = "tfl.conv_2d"(%0, %1, %2) {dilation_h_factor = 1 : i32, dilation_w_factor = 1 : i32, fused_activation_function = "NONE", padding = "SAME", stride_h = 2 : i32, stride_w = 2 : i32} : (tensor<1x224x224x3x!quant.uniform<u8:f32, 7.812500e-03:128>>, tensor<32x3x3x3x!quant.uniform<u8<1:255>:f32, 0.021826678373682216:151>>, tensor<32x!quant.uniform<i32:f32, 1.7052092479439231E-4>>) -> tensor<1x112x112x32x!quant.uniform<u8:f32, 0.023528476789885875>>
  %5 = "tfl.sub"(%3, %4) {fused_activation_function = "NONE"} : (tensor<1x112x112x32x!quant.uniform<u8:f32, 0.023528476789885875>>, tensor<1x112x112x32x!quant.uniform<u8:f32, 0.023528476789885875>>) -> tensor<1x112x112x32x!quant.uniform<u8:f32, 0.023528476789885875>>
  %6 = "tfl.pseudo_qconst"() {qtype = tensor<1x112x112x32x!quant.uniform<u8:f32, 0.023528476789885875>>, value = dense<0> : tensor<1x112x112x32xi8>} : () -> tensor<1x112x112x32x!quant.uniform<u8:f32, 0.023528476789885875>>
  %7 = "tfl.add" (%5, %6) {fused_activation_function = "NONE"} : (tensor<1x112x112x32x!quant.uniform<u8:f32, 0.023528476789885875>>, tensor<1x112x112x32x!quant.uniform<u8:f32, 0.023528476789885875>>) -> tensor<1x112x112x32x!quant.uniform<u8:f32, 0.023528476789885875>>
  func.return %7: tensor<1x112x112x32x!quant.uniform<u8:f32, 0.023528476789885875>>
}